models/tingvgg_model.pth (torch, 28999 bytes, 10 tensors)

conv_block_1.0.weight f4 [10, 3, 3, 3]
000000 e7 3a 2a 3e 5d 24 37 3e 43 29 de bc 4f f7 4d 3e
       0.16624032 0.17884965 -0.027119284 0.20113872
000010 47 f4 8f bc 9a 16 82 3d 6a 34 8b bd 40 46 0f 3e
       -0.017572535 0.06351967 -0.067971066 0.13991642
000020 36 64 49 3e fe f7 0d be 27 83 2d 3e 99 a1 18 3d
       0.19667134 -0.13864133 0.16944562 0.037263487
000030 3f 3c 1d 3e 9f b6 22 3d 9f e7 d9 3d ca a3 51 bc
       0.15355013 0.039724942 0.10639881 -0.012795398
000040 1d 34 29 3e 17 57 37 3d b8 74 ae bd 6d 97 5c 3d
       0.16523786 0.04476079 -0.08518356 0.05385535
000050 f0 37 ad bd 0c 4d f4 bb 78 11 78 bd 54 b7 14 3e
       -0.08457935 -0.0074554738 -0.060563534 0.14523059
000060 b4 b6 09 be 67 0c 90 bd f9 5a 16 bd 4b fd ed bd
       -0.13448602 -0.070336156 -0.036707852 -0.116205774
000070 1a 47 9a 3c ad 7e 46 be 5b aa 32 3e 3e 25 24 be
       0.018832732 -0.1938426 0.17447798 -0.16029832
000080 35 c8 18 3e b0 33 06 3d 73 f6 72 bd 19 a9 f4 3d
       0.14920123 0.032764137 -0.059317064 0.11946315
000090 85 43 6a 3d ac 38 3a 3e a3 4a 35 3d 77 b2 03 bd
       0.057193298 0.18185681 0.044260632 -0.03215262
0000a0 61 aa a6 3d 09 b9 d4 bc 89 38 df 3d ae 22 4c 3e
       0.08137966 -0.025967138 0.10899455 0.19935104
0000b0 9a 74 08 3e a8 ce 07 be 4a 33 65 3d ac 6f 88 bc
       0.1332573 -0.13262427 0.055957116 -0.016654812
0000c0 ac ba 35 3d 11 cd 33 be 09 e8 79 be 43 12 04 be
       0.044367477 -0.17558695 -0.2440492 -0.12897591
0000d0 73 ff 53 be 57 a9 ca 3d a7 20 1f 3d e4 68 87 3d
       -0.20702915 0.0989558 0.0388495 0.06611803
0000e0 2f 55 29 3d 65 32 d5 bc bd e5 04 3e 89 41 25 be
       0.041341003 -0.026025007 0.12978263 -0.16138281
0000f0 29 48 6a bc c7 33 23 be 58 f6 03 3d be dc 88 bd
       -0.014299431 -0.1593772 0.032217354 -0.06682728
000100 80 76 64 3d 1c dd 64 bd 91 22 11 3e 0b 80 07 be
       0.055777073 -0.05587493 0.14173342 -0.13232438
000110 33 a5 10 be d0 d8 f2 bd b6 c8 27 3e 4b 74 4d 3d
       -0.14125519 -0.1185776 0.16385159 0.050159734
000120 0c b2 57 3e 5d da 0e be 57 5d 3e be ce fd 14 be
       0.21064013 -0.13950486 -0.18590294 -0.14549944
000130 7e c7 fb bd ce c8 a1 3d 74 e1 d2 3d 6c 2f 41 3e
       -0.122939095 0.078996286 0.10296908 0.18865746
000140 7d 01 9c bd d7 9b 06 be 3d a0 cd 3d 51 68 9b bd
       -0.07617471 -0.13145386 0.10040329 -0.07588256
000150 77 4a e8 3d 3e c6 54 bd 1e f5 d8 3d 0d 3b 1e be
       0.11342328 -0.05194687 0.105936274 -0.15452214
000160 d2 32 d7 bd 20 07 57 3d 9c a5 8e 3d 96 5e ae bc
       -0.1050774 0.05249703 0.06965181 -0.021285336
000170 7a 54 11 3e 7f 06 1c 3e 7e ea ed bd d1 d9 9f bd
       0.14192382 0.15236853 -0.116169915 -0.07805217
000180 dd 47 49 3e fc f3 29 bd 9c 5b 1f bd af b7 19 be
       0.1965632 -0.041492447 -0.038905725 -0.15011476
000190 72 98 9e bd 0a 10 9c 3d 40 4f ba 3a a9 71 df bd
       -0.077439204 0.07620247 0.0014214292 -0.10910351
0001a0 14 61 0d 3d 30 3e d6 bd c5 92 04 be 49 54 8b bd
       0.03451641 -0.1046108 -0.12946613 -0.068031855
0001b0 3b 01 21 be 06 ac e2 bd f6 ef 58 3e bf 02 39 3d
       -0.15723126 -0.11067967 0.21185288 0.045168635
0001c0 50 64 8c 3d 71 67 27 be af 2c ef bd ef 16 62 bd
       0.068550706 -0.16348054 -0.116784446 -0.055197652
0001d0 5c f9 3c 3d 6c 9f 0a be b5 1b 48 bd c4 80 a0 bd
       0.046136245 -0.13537377 -0.04885455 -0.0783706
0001e0 d2 ff 07 3d a8 2a 21 bd 05 f5 b7 3c 2b 26 c5 bd
       0.033202954 -0.03934732 0.022455702 -0.096264206
0001f0 05 77 cc bd ca 53 99 bd 8d 92 ad 3b 4d b6 ae bd
       -0.09983639 -0.074866846 0.005297011 -0.08530865
000200 cc 78 60 3e fd a7 02 3d 6a 2c 6e 3e 8d db fa 3d
       0.2192108 0.031898487 0.2325913 0.12248907
000210 96 b8 c1 bd 87 a9 4b 3e f3 a2 47 3c e4 fa c6 bd
       -0.09459035 0.19888888 0.012184846 -0.09715822
000220 5e 06 39 be 45 ec 56 be 38 a0 0f 3d 70 07 75 bd
       -0.18068835 -0.20988567 0.035064906 -0.059821546
000230 1d 83 6f 3d 27 b7 2c be 0c b2 09 3e 3c 0b 16 be
       0.05847465 -0.16866742 0.13446826 -0.14652723
000240 95 06 b9 3b 0f 7b ae 3d e1 f1 10 3e 22 df 4f 3e
       0.0056465366 0.08519565 0.1415477 0.20299962
000250 cd eb 69 3e 4c 62 d2 bd 48 f4 d0 3d 44 29 dc bc
       0.22843857 -0.10272655 0.10202843 -0.026875146
000260 a3 77 04 3d 91 06 eb bd 86 a5 57 3e b7 e6 e3 bd
       0.032340657 -0.11475862 0.21059236 -0.1112799
000270 87 cd 13 3e 7b 5e e9 3d ce 37 ce 3d 13 a4 64 bd
       0.14433871 0.11394974 0.10069238 -0.055820536
000280 94 d0 65 3e bb 16 ac 3d 31 a3 80 3c fc 5f 36 be
       0.22442847 0.08402773 0.015702816 -0.17810053
000290 52 03 95 3d db 27 1e bd 6d 65 c7 bd da ce 1f 3e
       0.07276024 -0.038612228 -0.09736142 0.15606251
0002a0 c3 a6 09 3d 78 cd eb bd 20 be de bd d5 05 9a bc
       0.033606302 -0.115137994 -0.10876107 -0.018801609
0002b0 80 00 c9 3d 82 fd 6a bd dc d0 ed bd e3 35 97 bd
       0.098145485 -0.05737067 -0.116121024 -0.07383325
0002c0 fe 1f 1c be c6 0e 7f 3d 72 09 12 3e 40 e1 40 be
       -0.15246579 0.06226995 0.14261416 -0.18835926
0002d0 56 09 0c 3d ce 62 b6 3d 76 8e cf 3c 2b bd 9a bd
       0.03418859 0.08905564 0.025336485 -0.07555612
0002e0 69 d8 bb 3d 76 73 ba 3d b4 1c 87 3d 61 2f 24 bd
       0.09172136 0.09104054 0.065972716 -0.040084247
0002f0 a3 f4 70 bd 39 da 31 3d c8 0c 6a bc be be f1 bc
       -0.058827054 0.043421004 -0.014285274 -0.029509898
000300 ea 84 1b 3e 06 46 3f 3e 28 b4 0d 3c 65 b8 f8 bb
       0.15187421 0.18679056 0.00864891 -0.007590341
000310 e7 fa 0c 3d 43 a1 a8 3c 4c 4f 79 3b 2d c9 62 3c
       0.034418967 0.020584708 0.003804165 0.013841909
000320 8a 19 4b be ce 98 ef bd 0b 52 f0 3d a5 a5 4c 3d
       -0.19833961 -0.11699067 0.117343985 0.04996266
000330 c8 c8 4d bd 93 b2 20 be c6 41 13 be da bf 6e be
       -0.050240308 -0.1569312 -0.1438056 -0.23315373
000340 da c4 f0 bd 04 e3 c1 3c 11 67 57 3d 6d 7b c4 3c
       -0.117562965 0.02366782 0.052588526 0.023984635
000350 73 bd 5c be f5 f7 3e be 15 df cd bd d9 3d 08 3e
       -0.21556644 -0.18649276 -0.10052315 0.13304843
000360 b4 d5 31 3d 35 c2 17 bd 44 a5 c1 3d 0c b2 7a bd
       0.043416694 -0.037050445 0.0945535 -0.061204955
000370 57 2b f0 bd 6c 1e 1a 3e 12 d6 a0 bd 86 dd 0f bd
       -0.117270164 0.15050668 -0.07853331 -0.03512337
000380 bf bc 40 be d9 60 13 3e d8 d3 21 3e 86 e0 b0 3d
       -0.18822001 0.14392413 0.15803468 0.086365744
000390 ef f9 fd bd 1f 8b 39 be 2c 72 13 be 54 00 17 3e
       -0.12401187 -0.18119477 -0.14399022 0.14746219
0003a0 05 17 c1 3d 0c 2f 2a 3e 5e aa eb 3d 86 ac 64 3d
       0.09428219 0.1661951 0.11507104 0.055828594
0003b0 61 cd 13 3c 6a 1e 0c be 1c f8 22 be 91 d9 2f be
       0.009021134 -0.13683477 -0.15914959 -0.17172839
0003c0 fc 78 99 3d 30 04 c8 bd 75 24 1e bd 10 d4 e2 bd
       0.07493779 -0.09766424 -0.038608987 -0.11075604
0003d0 73 a4 0f bd 37 b4 0a be 95 c4 00 be 61 bd 82 3d
       -0.03506894 -0.13545309 -0.1257499 0.063837774
0003e0 cd 45 6a bd 7b 51 f3 3d be e2 7c bd 33 90 10 be
       -0.057195473 0.118807755 -0.061739676 -0.14117508
0003f0 1f 15 0b bd a9 0e bf bd 91 2a 71 bd d5 9b 3b be
       -0.03395569 -0.09328968 -0.058878485 -0.18321164

conv_block_1.0.bias f4 [10]
000000 49 51 9c 3d 75 cb 3c be 15 01 e2 3d 69 80 34 3e
       0.076326914 -0.18436988 0.11035363 0.1762711
000010 ce 8a 52 3e be f2 b0 bc 7e 2e 2d be 62 30 29 3d
       0.20560762 -0.021600123 -0.16912267 0.041305907
000020 2e 92 18 3e f7 24 44 be
       0.14899513 -0.19154726

conv_block_1.2.weight f4 [10, 10, 3, 3]
000000 87 24 03 3c d7 25 e3 bc aa cb 07 3d 29 06 a7 bc
       0.008004314 -0.027728004 0.033153214 -0.02038868
000010 7d f4 23 bc 01 81 b8 3b 73 37 93 bd e1 e6 f0 3d
       -0.010007021 0.005630613 -0.071883105 0.11762787
000020 22 ac fe 3d c4 8b 38 bc c2 f4 24 3c 7a 4d 8f bb
       0.124351755 -0.0112637915 0.01006812 -0.0043732496
000030 dc c8 9e bd 47 6d 92 bd fa 49 94 3d a0 63 53 bd
       -0.07753155 -0.07149749 0.072406724 -0.05160868
000040 a9 38 4e bd fb 54 ca 3c d9 74 9d bb c8 66 55 bc
       -0.050347004 0.024698725 -0.004805189 -0.013024993
000050 88 2d 8a 3c f5 fc 1b bc a3 6d bc bc cd 98 00 bd
       0.016867414 -0.009520759 -0.023001498 -0.031395722
000060 34 22 92 bd 17 ce be 3d 33 c4 f3 bc 74 1b 3f 3d
       -0.0713543 0.09316652 -0.029756641 0.04665704
000070 fd 17 41 bc 09 03 f7 3c 61 91 e1 3d b0 6f 86 3d
       -0.011785504 0.030152814 0.11014057 0.065642715
000080 c0 72 8e bd 63 2f 7b 3d 2c 5b f2 3d c0 91 37 3d
       -0.069554806 0.06132449 0.11833796 0.044816732
000090 90 d1 ec 3d ed e6 13 3e d8 05 da 3b ed 65 97 3d
       0.115634084 0.1444356 0.0066535287 0.07392488
0000a0 db c7 b6 bc c5 54 6c 3c c6 07 02 3e c2 f1 d4 3d
       -0.022312095 0.0144245075 0.12698278 0.10397674
0000b0 ca 74 0f bd 9b 31 6c be f0 8e 84 be 7a 09 82 be
       -0.035023488 -0.23065798 -0.25890303 -0.25397855
0000c0 23 33 79 be 64 6f 5a be 0a 0c 95 bd 48 ee 18 be
       -0.24335913 -0.21331555 -0.07277687 -0.14934647
0000d0 1d 10 84 be 0c 9c 5c be 1b a8 33 3d a7 8a af bd
       -0.25793543 -0.21543902 0.04386149 -0.08571368
0000e0 93 f4 41 bc f5 f9 3e 3d c5 cd 64 bd 0b e4 9f bc
       -0.011838096 0.046625096 -0.0558603 -0.019517919
0000f0 f8 2a 3c bc d8 9f f9 bc 65 d9 64 bd f7 8b 0f be
       -0.011484854 -0.030471727 -0.055871386 -0.14018236
000100 96 c6 06 be e0 64 ac bd c3 6e 6a 3d 93 db cd bd
       -0.13161692 -0.08417678 0.057234537 -0.10051646
000110 ec 87 c4 bd e9 5c 37 bc 1c df 9e bc e5 a7 ce 3c
       -0.095962375 -0.011191585 -0.019393496 0.025226543
000120 99 9d d1 3d ee 91 b1 3d 36 5a 9c bd 04 51 d6 3c
       0.102351375 0.08670412 -0.07634394 0.026161678
000130 a3 dd a6 3d 71 3f 60 3b 6a 4c 06 bd c7 5f 02 3e
       0.081477426 0.0034217502 -0.032787718 0.12731849
000140 16 13 78 bc 6f d1 75 bd 45 a0 c2 bd 60 49 9a 3b
       -0.015141269 -0.060014185 -0.09503225 0.004708454
000150 55 53 3f 3d 4c 26 bf 3c 68 c2 aa 3c 23 b8 a3 bd
       0.04671033 0.023333691 0.020844653 -0.07994106
000160 1a 9b c9 bd 61 4b f3 3a b8 69 e2 3d e8 44 93 3d
       -0.098440364 0.0018561893 0.110553205 0.07190877
000170 fd ee 4e bd 6b 01 da bb fd 17 97 bd 6d 3d 3c bd
       -0.050520886 -0.006653001 -0.07377622 -0.045957018
000180 c5 7e ac 3c c4 f0 6e 3d 3e 72 b5 3d bf 9a 82 be
       0.021056542 0.05833508 0.088596806 -0.25508687
000190 98 84 ae bd 9e 36 68 be b8 7a f9 bd 91 fb 93 bd
       -0.08521384 -0.22677085 -0.1218161 -0.07225717
0001a0 78 c1 1c be 93 22 6d bd 0c cc 7b be 78 0a 45 be
       -0.15308177 -0.0578943 -0.24589556 -0.19242275
0001b0 fa e8 81 3d ca 44 d7 bc a4 77 f4 bc 66 2c 80 bb
       0.06343265 -0.026277918 -0.029842205 -0.0039115427
0001c0 e1 20 d1 3d 47 05 78 3d f8 2e b9 3d 79 ef f4 bc
       0.10211349 0.060551908 0.09042162 -0.029899346
0001d0 b0 46 a3 bd 51 8e 1a 3d a5 03 76 3d cc ca ea bc
       -0.07972467 0.03773338 0.06006207 -0.028661154
0001e0 40 23 92 bb ba 25 ce 3d c7 48 14 3d 94 f7 d2 3c
       -0.0044597685 0.100657895 0.03620222 0.02575282
0001f0 32 13 60 3b a3 6c 89 bd e9 dc ba bd 37 15 be bc
       0.0034191129 -0.06710174 -0.091241665 -0.023203475
000200 95 c5 c8 bb 94 23 21 3d aa ef d3 3b 77 ca 97 3c
       -0.0061270692 0.03934057 0.006467779 0.01852916
000210 a6 66 01 3e db dc b3 3d 48 c3 14 3e 53 e4 d2 bd
       0.12636814 0.08782359 0.14527619 -0.10297456
000220 ea be db bd 08 d6 5d bc 37 d9 20 be 32 31 24 be
       -0.10729773 -0.013539799 -0.15707861 -0.16034392
000230 52 9e 89 bd ad b7 d8 bd da 81 1b be 4f 5f aa 3b
       -0.0671965 -0.105819084 -0.15186253 0.00519935
000240 ba 9e ad 3d 40 6f c1 3c 0e 05 6f bc 90 73 d0 bd
       0.0847754 0.023612618 -0.0145886075 -0.10178292
000250 24 89 05 bd 46 de a0 3c 1c 59 51 3d 2c 67 c4 bc
       -0.03260149 0.019637238 0.051110372 -0.023974977
000260 bb fb 59 bd ad b8 77 3d 88 0c b6 bd 4c e9 82 3d
       -0.053218585 0.060478855 -0.08889109 0.06392154
000270 8b fe 03 bd 99 2d 0b 3c c5 8c a9 bc b4 19 8e 3c
       -0.032225173 0.008494758 -0.020697007 0.01734624
000280 60 42 dc bc 65 b3 9c 3d 09 fe 13 3d 79 14 04 3e
       -0.026887119 0.07651404 0.03613094 0.12898435
000290 6e 04 0e 3e 93 c0 85 bb 22 54 10 bd b3 04 f0 3d
       0.13868877 -0.0040817945 -0.035236485 0.11719646
0002a0 02 24 cf 3d ac f1 9e bd 9d f8 4b bc 15 e2 d4 bd
       0.1011429 -0.07760939 -0.012449411 -0.10394684
0002b0 b9 b7 b0 bd f1 c7 a6 3c 68 b9 e5 3c 5f 0c b7 3c
       -0.08628792 0.020359011 0.02804251 0.022344766
0002c0 85 04 eb bc 15 2a c7 3d 32 ed 76 3c d9 c5 7e bd
       -0.028688679 0.097248234 0.0150712 -0.0622004
0002d0 3b 5e 64 bc 93 97 83 3c d5 90 f5 3c 30 ef a6 bd
       -0.013938482 0.016063487 0.029976288 -0.0815109
0002e0 b1 fb 00 3d 72 a3 81 bd cf 15 bf bd d2 3d 83 bd
       0.03149003 -0.06330003 -0.093303315 -0.06408276
0002f0 f3 0a bd 3d 8e 8b b8 3d c7 50 c1 3d 20 72 7d 3d
       0.09230604 0.09010993 0.09439235 0.061876416
000300 c6 15 a3 3d 71 29 67 bc 7a 90 6d bd d9 ba 57 3d
       0.07963137 -0.0141090015 -0.05799911 0.052668426
000310 8b ba 5f bd 55 b0 91 bd af 31 11 bd 51 6c 89 3c
       -0.05462126 -0.07113711 -0.035447773 0.016775282
000320 de 16 4b 3d 7a de 35 bd 56 16 82 bd 14 d1 20 3c
       0.049582355 -0.044401623 -0.063519165 0.009815473
000330 f8 8f 87 bd 59 95 8d bd 17 23 5f 3d 05 08 9c bc
       -0.06619257 -0.069132514 0.054476824 -0.019046793
000340 fa c6 c2 3d 6a 2f d7 3d db d5 dc 3c 0f 78 03 3d
       0.09510608 0.105070904 0.026957443 0.03209692
000350 5e 10 c3 3c 24 6c 59 bb 1d 58 58 bc 90 28 80 ba
       0.023811515 -0.003317603 -0.013204602 -0.0009777714
000360 15 8e 1b 3d 6e dd c3 3d 88 37 f6 bc a9 57 49 bd
       0.037977297 0.09563719 -0.030055776 -0.049155865
000370 a1 17 f1 bc 7e 55 5c bd 1d 4e 50 3c 14 4b 95 3d
       -0.029430212 -0.05379247 0.012713936 0.07289711
000380 20 2d a1 3d 53 2c 27 3d 1d df 9e bd c6 b9 67 bd
       0.07869935 0.040813755 -0.07757399 -0.05657365
000390 06 8b bf bc 8e 2a 9f bc 21 38 59 3c 61 b9 bf bd
       -0.023381721 -0.019429471 0.013258011 -0.0936153
0003a0 8a 9c 06 3d 64 9d a4 bd 83 98 88 bd 32 7a b3 bd
       0.03286413 -0.080378324 -0.06669714 -0.08763541
0003b0 50 19 bc 3d 73 6c cc bd ef d9 a2 3d 9c 3a 68 bb
       0.091845155 -0.099816225 0.07951724 -0.0035435325
0003c0 d8 d9 48 bc f3 06 87 3d f4 9f 1f bc f0 e0 78 3d
       -0.012258969 0.06593122 -0.009742726 0.060761392
0003d0 2a 46 9b 3d 2b 31 cf bd 2a fb 18 3d 2e a2 91 3c
       0.07581742 -0.101168 0.037348904 0.017777529
0003e0 a1 22 84 3c a3 89 25 3c 88 4c dd 3c 54 dc 63 bd
       0.016129794 0.010103616 0.027014032 -0.055630043
0003f0 2a e6 9e bc 95 26 c5 3d 9c 7c 8d 3d 75 6a 11 bc
       -0.01939686 0.096264996 0.06908533 -0.008875479

conv_block_1.2.bias f4 [10]
000000 87 0e 33 3d 84 5b 88 3d cc ca c5 bd 0d 74 cd bd
       0.043715026 0.0665808 -0.09657821 -0.100319006
000010 11 4d bd 3c 4b e2 6a bd a8 f3 7c 3b 4d f9 c3 bc
       0.023108037 -0.057344716 0.003859738 -0.023922587
000020 c6 1b 9d 3b 59 c9 5b 3d
       0.0047945706 0.053658817

conv_block_2.0.weight f4 [10, 10, 3, 3]
000000 8c 63 9a bd 03 93 1c 3d 67 a2 26 3d 68 d8 0f be
       -0.07538518 0.03822614 0.040682223 -0.14047396
000010 7a 64 18 be 45 29 1e be 29 1b e8 bd a4 7d d3 bd
       -0.14882079 -0.1544543 -0.113333054 -0.103266984
000020 a3 b9 97 bd 60 94 6d bc 16 f8 2f bd b6 91 b2 bc
       -0.07408454 -0.014500707 -0.042961203 -0.021797996
000030 3a 5d 17 bd 8e 29 d1 3d cf e4 1c bd e4 fd 8f bd
       -0.036954142 0.10213004 -0.038304146 -0.07030848
000040 a0 d4 3e 3d 84 d7 1c bb c8 fe 96 3d 73 56 4f 3d
       0.046589494 -0.0023932168 0.073728144 0.050619554
000050 24 6b cc 3d 8a 1f 9d bd a0 ae 59 3d db ab 9d 3d
       0.09981373 -0.07672031 0.05314505 0.076987945
000060 34 1a 5e bd 00 50 ae 3d 4e a0 80 3d 56 90 3d 3c
       -0.054224208 0.085113525 0.06280576 0.011570057
000070 43 05 84 3d 41 79 2c bd 6e 75 94 bd 0c d7 e8 3c
       0.06446316 -0.042107824 -0.072489604 0.028422855
000080 58 f0 07 3c fb cb 4e bd 0b c5 4f 3d e7 c8 e6 bd
       0.0082970485 -0.0504875 0.050725024 -0.11268788
000090 39 96 50 3d af 50 6e 3d a6 de 5f bc e4 64 01 be
       0.050924513 0.058182415 -0.013663923 -0.12636143
0000a0 8b a7 67 bc 35 92 60 bd 3e f5 d2 bc 7f a4 e0 bc
       -0.014139066 -0.054826934 -0.025751706 -0.027422188
0000b0 78 30 88 3c 88 c6 27 bd 24 e8 ef bc 01 08 9d 3c
       0.016624674 -0.04096082 -0.029285498 0.019168856
0000c0 bc 20 8d 3c 5f 68 c3 3d fc 2a 52 bd f4 38 8a 3a
       0.017227523 0.095413916 -0.051310524 0.0010545538
0000d0 54 e6 d6 3c 9c d4 f6 bc 22 f1 5b 3d e4 bb de bb
       0.026232876 -0.030130677 0.05369676 -0.0067973007
0000e0 47 f3 e3 bd f8 25 37 bd 7b dd a7 bd 9b 7a e1 bc
       -0.11130386 -0.044713944 -0.08196541 -0.027524283
0000f0 83 65 21 bd 66 38 0b be eb 0e 5a bd b0 0e d2 3c
       -0.03940345 -0.13595733 -0.053236883 0.02564177
000100 a0 8d 47 3b a2 41 01 3e cb 73 16 3d ec c6 00 3e
       0.0030449405 0.12622693 0.036731523 0.12575883
000110 ec 4b a3 3d cc be ad bc a9 88 bb 3d 91 e8 19 3e
       0.07973465 -0.021209143 0.09156925 0.15030123
000120 22 92 8e bd 52 3e 87 bd 6e d1 cc 3d 3c 6f b4 3d
       -0.06961466 -0.066036835 0.10000883 0.08810279
000130 ba c2 2d bd 59 03 6c 3d f4 6c a5 bb ec 44 da bd
       -0.042422034 0.05762038 -0.0050483886 -0.10657677
000140 e7 90 b7 3b fa 1c 5f 3d cb b2 4c bc d7 6c 57 3d
       0.0056019905 0.054470994 -0.012493799 0.052594032
000150 ef c1 53 bd e8 1d e2 3d 79 e3 fb 3d 01 a0 ca 3d
       -0.05169862 0.110408604 0.12299246 0.098937996
000160 2f 2d 72 3d f7 34 96 3d ab 2f 07 bd 81 32 11 3d
       0.05912512 0.07334321 -0.033004444 0.035448555
000170 95 97 5f 3d 3b db 04 bc ac 9b dd bb b2 a9 16 3e
       0.05458792 -0.008108909 -0.0067629423 0.14713171
000180 e6 db f6 3d b4 9e 16 bd c3 9c cb 3d 56 d7 a7 3d
       0.12053661 -0.036772445 0.09942009 0.08195369
000190 86 ac 10 3e da 09 cf 3d 2a c0 11 3e 17 74 4f 3c
       0.14128312 0.10109301 0.14233461 0.012661955
0001a0 33 8b f5 3d 5d 95 fd 3d 76 9d 73 bd 6d 8b 32 bd
       0.11989441 0.123820044 -0.05947634 -0.043589998
0001b0 e1 dd b1 3c e6 ff 84 3d 2a 64 34 bd 29 d6 22 3c
       0.021712245 0.06494121 -0.044040836 0.009938755
0001c0 a5 58 79 3b 21 cc 02 3d aa 19 6d bd 00 2d 78 3d
       0.003804722 0.031932954 -0.057885803 0.06058979
0001d0 f2 87 9b 3d 1f 51 46 bd 9e 43 ee 3b f4 81 d9 3c
       0.07594289 -0.048417207 0.007271244 0.026551224
0001e0 eb c2 57 3d 08 ee f9 3d b4 20 56 3d 7d 19 28 bb
       0.052676123 0.12203604 0.052277282 -0.0025649958
0001f0 1f b5 ed 3d 5b 17 90 bc fa 36 b5 3c a1 57 92 3d
       0.11606812 -0.017589262 0.022120941 0.0714562
000200 45 66 d8 bc fd 18 99 3d 57 74 2f 3b 2b 4b af 3d
       -0.026415953 0.07475469 0.0026772225 0.08559259
000210 79 a1 50 3d 84 a8 87 3d 6d 18 11 bd 1d 74 d0 bd
       0.050935242 0.06623939 -0.035423685 -0.10178397
000220 72 77 5e 3d 01 51 c8 3d ef b7 a6 bd 0c 9d 5c 3d
       0.05431313 0.09781075 -0.08140551 0.05386071
000230 3a aa 7f bd cc b2 71 3c 50 11 d9 3d be e6 b1 3d
       -0.0624182 0.014752101 0.10599005 0.08686589
000240 3b 41 fe bc b0 af fc 3d 24 ad e3 3d a2 11 48 3d
       -0.031036964 0.12338197 0.11117008 0.04884494
000250 12 a7 2a 3e 96 7d ba 3c 8d b6 4e 3c 2e a1 38 bb
       0.16665295 0.022764962 0.012616766 -0.0028172242
000260 93 2a 90 3d e0 88 44 3d 54 38 72 3c a5 6c 38 bd
       0.070393704 0.047982097 0.0147839375 -0.045025486
000270 fd 09 6a bd 90 58 65 3c f0 ca e1 bd 85 d6 c4 bc
       -0.05713843 0.013998166 -0.110250354 -0.024028072
000280 1d ab c3 bc 9c d4 80 bd e6 85 1f 3d 57 1b 08 3c
       -0.023885304 -0.06290552 0.038946055 0.0083073
000290 2e bd 7f 3d 71 b9 44 bc bf e7 98 bd ce df 78 3d
       0.062436275 -0.012007103 -0.07466077 0.06076031
0002a0 1b a0 8b 3c 3f 1e d3 bc 0a b4 9b bd c2 27 71 3d
       0.017044118 -0.025771258 -0.07602699 0.058875807
0002b0 7e c0 9d bd 1a db 6c 3d 5d 15 8b 3d 46 19 b5 bd
       -0.077027306 0.05782614 0.06791184 -0.08842711
0002c0 d1 f8 7d bd 15 15 5c bd 27 4e cd 3d 97 a2 ce 3d
       -0.062004868 -0.053731043 0.10024672 0.10089605
0002d0 52 7f e5 bc 0f 45 83 3d 0a 9d 94 bd 61 3b 15 be
       -0.028014813 0.06409656 -0.07256515 -0.14573433
0002e0 b8 f7 da bb 92 fb 07 bc d5 f4 76 3d 9f da 33 bd
       -0.0066823624 -0.008299725 0.060292084 -0.043909665
0002f0 5d 11 0b 3d 46 20 b5 3d 75 df cd 3d 58 bb a4 bd
       0.033952106 0.08844046 0.10052387 -0.080435455
000300 d1 1c df 3d 45 07 8a bd 85 69 f0 3d 56 bd 9a 3c
       0.10894168 -0.06739668 0.11738876 0.01888911
000310 6d bb 8e bd 20 ea 5f 3d 97 f1 05 bd ac be dd bd
       -0.069693424 0.05466664 -0.0327011 -0.108273834
000320 d8 13 1b bd 17 ab 07 3c 39 41 8e 3d 25 14 1f bd
       -0.03786072 0.008280537 0.06946034 -0.03883757
000330 01 bb 69 3d 07 8c d7 b9 ce 1a 2f bc 7d ec c5 bb
       0.057063106 -0.00041112324 -0.010687543 -0.0060401545
000340 27 72 bc bd 4c 25 ce bd db 7e 4f bd b1 36 02 be
       -0.0920146 -0.100657076 -0.05065809 -0.12716176
000350 bf 77 92 bd ab 8e 29 bc 6f cd cc bd c5 61 a8 bd
       -0.07151746 -0.010348956 -0.10000121 -0.08221773
000360 73 16 d8 bd 00 54 db bd 29 5d 2b be 62 10 b9 bd
       -0.10551157 -0.10709381 -0.16734757 -0.09036328
000370 6d 23 f1 bd 59 55 ab bd 05 e3 b4 bd 66 f8 18 be
       -0.11774335 -0.08365888 -0.08832363 -0.14938506
000380 e2 12 10 be 06 cf 7e 3b 4a 1d 99 bd f5 ef 54 3c
       -0.14069703 0.003888072 -0.074762896 0.012996663
000390 a3 6b 5a bc f9 45 40 3d a9 bb bf 3c e7 ec a8 3d
       -0.013331327 0.04694173 0.023404913 0.082483105
0003a0 2b fb b3 3b da bd a1 bd 68 4f b2 bb 39 9a f9 bd
       0.005492588 -0.078975394 -0.005441595 -0.12187619
0003b0 26 26 9b bd 21 0c c2 bd bc 3a cd bd a2 a5 df bd
       -0.075756356 -0.0947497 -0.10020968 -0.10920264
0003c0 4d 59 13 3d d4 65 2a b9 25 fe 23 bd 3b 20 e2 3d
       0.035973836 -0.00016250397 -0.040037293 0.11041304
0003d0 0b c2 a7 bd 87 66 fd 3c 0f f2 b8 3d cc 56 c2 3d
       -0.08191308 0.030932678 0.09030544 0.094892114
0003e0 a2 3b 72 bd ea f8 80 3d ea 19 03 bd 5c 67 bd 3c
       -0.0591389 0.062974766 -0.032007135 0.023120575
0003f0 93 d2 bd bc 3c 15 b3 bd 9e 2a db bd 5c a0 7c bd
       -0.023171699 -0.087442845 -0.10701488 -0.061676368

conv_block_2.0.bias f4 [10]
000000 f6 f2 0a 3d 45 dd 27 3d d1 d1 31 3d 69 80 ba 3b
       0.03392311 0.040982503 0.043412987 0.005691577
000010 ac 96 98 bd d9 e7 7d bd 31 7a a8 3d fa 2d be 3c
       -0.074506134 -0.061988685 0.08226431 0.023215283
000020 84 11 39 bc aa 41 e3 bd
       -0.01129568 -0.11096509

conv_block_2.2.weight f4 [10, 10, 3, 3]
000000 b1 a9 9f 3d f2 5b a5 bc 75 e9 1a bd 45 81 3b bd
       0.07796038 -0.020185445 -0.0378203 -0.045777578
000010 d2 90 d6 bc f5 b3 37 3d e7 2c 7c 3b 29 b6 c6 3d
       -0.026192103 0.044849355 0.0038478912 0.09702713
000020 95 20 e5 3a 1c db fe bc c1 fd 32 3d 5a a0 88 bc
       0.0017481024 -0.031110339 0.04369903 -0.016678024
000030 a8 dd 31 bd 57 73 c3 3c c6 f9 8b 3d 2f 33 00 3c
       -0.04342428 0.02385871 0.0683475 0.007824703
000040 f8 66 5a 3d bc d4 4c 3d 0f 88 b3 3c 9d 89 f4 3c
       0.053320855 0.050007567 0.021915464 0.029850775
000050 3a f2 c4 3c 33 85 17 3c f5 f4 b1 3d 6a 20 c7 3d
       0.024041284 0.009248066 0.086893 0.09722979
000060 8a b0 2f 3d 5a a5 40 ba 60 22 d7 3d 21 45 13 be
       0.04289297 -0.0007348858 0.105046034 -0.1438184
000070 f5 47 20 3c 4b 3a 01 bc 0a 43 69 3b e4 90 98 bd
       0.009782781 -0.007887433 0.0035592937 -0.07449511
000080 f6 7a 11 be 6d 57 91 3c e0 0a da bd 0b b4 04 bd
       -0.14207062 0.017741883 -0.106466055 -0.032398265
000090 1e 1b 0b 3d 21 0f b0 bd 6a e7 17 3d 0a 5f 19 bd
       0.033961408 -0.085966356 0.037085928 -0.037444152
0000a0 fb a2 8d 3d 2f 73 89 bd c5 21 50 3d 9f 60 63 3d
       0.06915852 -0.06711423 0.050813455 0.055512067
0000b0 33 15 84 3d 40 8c df 3d 02 3e e5 3c fa e5 c9 bd
       0.06449356 0.109154224 0.02798367 -0.09858318
0000c0 cf b1 af 3d 62 df b2 3c 23 67 95 3b 38 c4 d4 bd
       0.08578836 0.021835033 0.004559414 -0.10388988
0000d0 6a f7 ed bc 39 ce 6c bd d6 5d dc 3d 45 bd a5 3d
       -0.02904864 -0.057813857 0.10760085 0.08092741
0000e0 d4 26 b0 3d 15 7d 96 3d 5f 55 7b bd 80 95 2d bd
       0.08601156 0.07348076 -0.061360713 -0.042378902
0000f0 7a e6 25 bd eb 48 29 bd b6 a1 a2 3d 51 f3 16 3d
       -0.040503003 -0.041329306 0.07941 0.03685314
000100 f0 83 a6 3d 52 2e 25 bc d8 e9 ae bd f8 3d b8 bc
       0.08130634 -0.010081844 -0.08540696 -0.022490487
000110 c2 0f a8 3d a4 54 a5 3d 83 fa 50 3d 9e 89 26 bc
       0.082061306 0.080727845 0.051020157 -0.010164646
000120 00 ee 02 be 30 d9 96 bd 3c d7 9f 3d 04 e5 2a bd
       -0.12786102 -0.07365644 0.078047246 -0.041722313
000130 a1 9d cf 3c 68 c1 0a 3d 29 56 c8 bc 0e 4e af 3c
       0.025343718 0.033875853 -0.024455147 0.021399524
000140 93 17 f0 bb 58 d1 b4 bc 41 7e 3d bd 28 43 cc bd
       -0.007327029 -0.02207248 -0.046262983 -0.099737465
000150 54 22 57 3b bc 62 2e 3d 91 03 84 bd b4 6a 8e 3d
       0.0032826858 0.04257463 -0.06445993 0.06953946
000160 fe 10 9f bd b4 ea ad bd 76 a5 95 bd 3e c4 62 bd
       -0.07766913 -0.08492032 -0.0730695 -0.055362932
000170 63 68 02 bc 97 83 82 bd 6f da dc bb 82 af fc bd
       -0.007959458 -0.06372755 -0.0067399065 -0.12338163
000180 0e d8 82 bc 24 5a 21 bd ca 74 79 3b 2d f0 12 3e
       -0.015972164 -0.039392605 0.0038063996 0.14349432
000190 a4 4d d0 3d 3b c2 b8 bc 65 62 4d bd ec c6 5a 3c
       0.10171059 -0.022553554 -0.050142664 0.013353091
0001a0 66 05 22 bc a8 64 a1 3d ac 91 25 3d 2d f2 02 3e
       -0.009888982 0.07880527 0.040422127 0.12787695
0001b0 34 7c 04 3d d0 9f 27 bd 7d ec 0b bc 92 d9 bd bb
       0.03234501 -0.040923893 -0.00854027 -0.0057937587
0001c0 02 fb 81 bd 47 de 21 3d c5 fc ec bd 7c 02 6d 39
       -0.06346704 0.03951862 -0.115716495 0.00022603007
0001d0 db 00 eb bd 9d cd a9 bd ab 84 53 bc 1d 32 7e 3d
       -0.114747725 -0.08291171 -0.0129100485 0.06205951
0001e0 33 e3 a0 3d 6b 14 ea 3c b9 81 d5 bb b1 eb 54 bb
       0.07855835 0.02857419 -0.0065157083 -0.0032489116
0001f0 55 99 33 bd c8 f7 22 bc 53 6c 57 bc ce 25 ad 3d
       -0.0438474 -0.009946771 -0.013148385 0.08454476
000200 08 61 5b 3d db c4 9c bd 1f dc fd bc a5 38 c0 bd
       0.053559333 -0.07654735 -0.030988751 -0.09385804
000210 ed 51 26 bc b5 92 ab bd cf 7a e0 3c 88 b3 b8 bd
       -0.010151369 -0.083775915 0.02740231 -0.09018618
000220 17 7b ca 3d 46 6c 94 3d 03 cc a0 bd 14 eb ee bd
       0.09886759 0.07247214 -0.07851412 -0.11665931
000230 0d 61 c4 ba 90 39 e7 bc f8 a2 62 3d 5a 8c 83 bd
       -0.0014982537 -0.02822569 0.0553312 -0.06423254
000240 0a 88 69 3d 24 41 94 bd 4b 2e 19 bd 81 f9 18 bd
       0.057014503 -0.07238987 -0.037397664 -0.03734732
000250 61 fa 96 3d d1 f4 aa 3c 6a f5 ad bd 33 db 21 bd
       0.07371975 0.02086869 -0.08494075 -0.039515685
000260 be c0 dc bc 9f 69 e2 bd a9 aa 2f bc fc 33 e3 3c
       -0.026947375 -0.11055302 -0.010721841 0.027734749
000270 ce b9 71 bd 52 df bf bd 24 13 24 bd 3c a5 f5 bd
       -0.059015088 -0.09368767 -0.040057316 -0.119944066
000280 bb d1 e3 bd d1 72 2c bd 68 49 af 3d 20 17 88 bc
       -0.11123987 -0.042101685 0.08558923 -0.01661259
000290 29 1c 30 3d 82 3e 8f bc 91 e6 02 bd 81 ab d4 bd
       0.042995606 -0.01748586 -0.031958167 -0.10384274
0002a0 3a a7 81 3d ea 96 c1 3d f3 6b 94 3c 97 29 89 3d
       0.06330724 0.09452613 0.01811788 0.06697386
0002b0 64 93 b0 3d 01 76 56 3d e3 5c 5e 3d 94 83 cd bd
       0.086218625 0.05235863 0.054287802 -0.10034862
0002c0 b8 da ca bd f8 b1 a5 bd 13 0c 07 3d c5 ba ba bd
       -0.099049985 -0.080905855 0.0329705 -0.09117655
0002d0 17 75 8d bd 8b 75 85 bd b4 4a b4 bd 0e dc 4b bc
       -0.06907099 -0.0651656 -0.08803311 -0.012442602
0002e0 8a e0 b9 bc e1 4c 99 bd b7 83 c0 3d af 79 01 bd
       -0.022690076 -0.074853666 0.094001226 -0.031610187
0002f0 0e de eb bb 65 c4 0b 3e 50 58 19 3e c5 0b 23 3d
       -0.007198102 0.13649137 0.14975095 0.039806146
000300 4d f2 a5 bc f3 48 db 3b a6 28 8a 3d 58 9b eb 3d
       -0.02025714 0.006692046 0.06746034 0.11504239
000310 eb 46 d6 3d e4 d2 29 3b c0 ef d5 bd 46 ac f3 bd
       0.10462745 0.0025913054 -0.10446119 -0.11898093
000320 0d 8d 64 bd a3 f9 b5 bc ad cf c1 bd a7 e9 02 be
       -0.05579858 -0.022213763 -0.09463439 -0.12784444
000330 43 66 33 ba 2e 2c ef bd 43 26 e3 bd 6f e4 81 bd
       -0.0006843546 -0.116783485 -0.11091282 -0.063423984
000340 9c 2a 47 bc f9 5c e6 3d 9e ee 66 3d 6d 92 8a bb
       -0.012156155 0.11248202 0.056379907 -0.004228881
000350 af 9e f8 3c 85 32 78 3d 79 d7 3f 3c 8a df 98 bd
       0.030349104 0.060595054 0.0117090875 -0.07464512
000360 17 72 6f bd 6a dd 82 bd 47 d4 ca 3b 2a 10 ac bd
       -0.058458414 -0.06389888 0.006189856 -0.084015206
000370 23 ae 30 bd f0 e4 85 bd 3b db d3 3d 14 82 a4 3d
       -0.04313482 -0.06537807 0.10344549 0.08032623
000380 64 37 8a 3d db e1 24 bc 33 7a 08 bd 93 b1 f0 3c
       0.06748846 -0.010063614 -0.033319663 0.029381549
000390 e0 dc ab bd 35 32 7d bd a6 58 5d bc 6b 23 91 bc
       -0.08391738 -0.06181546 -0.013509905 -0.017717084
0003a0 42 13 87 bd 2e 18 55 3d d8 0c e1 3d 89 d5 dd bc
       -0.0659547 0.052025013 0.10988778 -0.02707936
0003b0 9e d3 75 3d 2a a4 57 3c 1a fe e8 3c 4a 0d 25 3d
       0.060016267 0.013161698 0.028441478 0.040295877
0003c0 0e aa df 3d 43 e2 1b 3d 9b 00 27 bd 75 0f 6c bd
       0.10921107 0.038057577 -0.04077206 -0.05763193
0003d0 ee c1 4d 3c 2b 5f 29 3c fe 38 fe bc 0c 23 91 bd
       0.0125584435 0.010337631 -0.031033035 -0.07086763
0003e0 04 b9 af bd 81 6e 55 bd e4 d4 af bd 5c d2 a4 bb
       -0.08580211 -0.052107338 -0.085855275 -0.0050299596
0003f0 37 15 56 3c d4 a2 9a 3d 95 02 7f bc 0c d8 81 bb
       0.013066581 0.07550588 -0.01556458 -0.0039625224

conv_block_2.2.bias f4 [10]
000000 a1 12 a9 3d d4 82 a9 3d 4e c6 46 3d c1 a4 c4 bd
       0.08255506 0.082769066 0.04852896 -0.09601737
000010 59 23 f2 bc b0 24 66 bd e5 bd f2 bc f1 07 b7 3d
       -0.02955787 -0.05618733 -0.029631564 0.089370616
000020 50 db 40 bd 36 f3 c0 bd
       -0.047084153 -0.09421389

classifier.1.weight f4 [2, 1690]
000000 9a 26 ea bb 0b f6 ea 3c f2 de d7 3c 39 06 4a 3d
       -0.007145715 0.028681776 0.026351426 0.04932234
000010 b1 2a 8d 3c b8 d4 18 bc 8b 67 80 3c 14 0b 05 3d
       0.01723227 -0.00932806 0.015674373 0.032481268
000020 38 ef d2 3c 2d 44 b7 3c 34 78 2e bb 24 cf fc 39
       0.025748834 0.022371376 -0.002662194 0.00048219517
000030 ce 69 ee 3c bb 54 aa bb 40 cc 8a 3c b8 13 7f 3c
       0.029103186 -0.005198089 0.016943097 0.015568666
000040 b7 3d e2 3c 57 a8 1e 3b 17 1e 91 bc 4c 12 cc ba
       0.027617319 0.0024209225 -0.017714543 -0.0015569418
000050 f1 fb be 3c ea 74 0f 3c 92 1a f2 3c f0 77 d3 3a
       0.023313494 0.008755902 0.029553685 0.0016133767
000060 dc 12 cd 3c a2 14 69 3a 72 81 95 bb bc 0a 8a 3c
       0.025033407 0.0008891319 -0.00456255 0.016850822
000070 c0 01 ef 3b 17 42 0f 3b 54 a8 02 bc d8 a5 04 bb
       0.00729391 0.002185946 -0.007974703 -0.0020240452
000080 d3 a2 87 bb 90 c7 60 3c 3b cd 85 bc 11 e1 03 3d
       -0.004139283 0.013719454 -0.016333213 0.032197062
000090 62 68 18 3d d3 a6 6d 3c 40 3f d9 bb ee dc 8e bc
       0.037208922 0.014505106 -0.0066298544 -0.017439332
0000a0 8e 3e f6 3c dc d4 29 3d b7 50 13 3d ba 72 b2 3b
       0.030059125 0.041462764 0.035965648 0.0054458054
0000b0 a8 e4 8c 3c 32 bd 36 3d 1b 83 aa 3c 58 c2 cc 3b
       0.017198876 0.044614024 0.02081447 0.0062487535
0000c0 ea 39 90 bb 96 ec f5 3c 2e d2 e0 3c 27 2a c0 3c
       -0.004401435 0.03002004 0.027443971 0.0234576
0000d0 ae 45 26 3b 55 71 ed 3c 2e 71 88 3c 41 be 39 3c
       0.0025371122 0.028984705 0.01665553 0.011336864
0000e0 f9 3d e6 3c bb 8e de bb 24 2e 08 3d ae af db 3c
       0.028105723 -0.006791917 0.033247128 0.026817169
0000f0 60 9f 78 b8 1c a1 de 3c 13 68 68 3c 90 4e 9e 3c
       -5.9276237e-05 0.027176432 0.0141849695 0.01932457
000100 7a 20 81 3b 2b c0 70 3b 09 3f d3 3c 83 20 24 3d
       0.003940639 0.0036735635 0.025786893 0.040070068
000110 87 88 b7 3c 96 3e aa 3b de cf 8f 3c ab 1d b8 3c
       0.022403968 0.005195449 0.017555173 0.022475084
000120 ca 5d a6 3a d9 7c 0c bc ca ab 36 3b 9e 29 82 3c
       0.0012692746 -0.008574688 0.002787339 0.015888985
000130 65 00 ed 3c 50 eb 3e 3d 16 21 cf 3c fa d0 f0 3c
       0.028930852 0.04661113 0.025284331 0.029396523
000140 14 87 33 3d ab 2c c4 3c b9 e0 9a 3c 2d aa 14 3d
       0.043829992 0.02394708 0.018905984 0.036295105
000150 e8 ee 21 3d 90 a6 af 3c d5 c0 b3 3b 4b 04 44 3d
       0.03953448 0.021441728 0.005485634 0.047855657
000160 34 da f8 3b 10 c8 f3 3c 2b 5c d6 3c 66 de db 3c
       0.007594371 0.029758483 0.026166996 0.026839446
000170 f4 44 82 bb 0f 12 bf 3c 48 c3 44 3d 16 fd 57 3d
       -0.003975505 0.02332404 0.048037797 0.052731596
000180 76 ba 86 3c 53 aa 1b 3d 8c 2d 2d 3c ab 24 6d 3c
       0.016446333 0.03800423 0.010569941 0.014474074
000190 50 26 03 3d f9 74 2e 3d f5 a3 a8 3c 4e 6b 14 3d
       0.03201896 0.042592023 0.020585993 0.036235146
0001a0 a5 bc dc bb b8 d5 3b 3c 0a 5a fb 3b 2f 0e 4c 3d
       -0.0067363554 0.011464529 0.0076706456 0.049818214
0001b0 65 12 af 3c 4a 0c 8c 3b 8b c5 6a 3c 7a 15 a8 3c
       0.021371076 0.004273926 0.0143293245 0.020518053
0001c0 fd f8 07 3d a8 14 00 3d ce 9a 55 3d 72 ba 87 3c
       0.033196438 0.0312697 0.052149586 0.016568396
0001d0 93 74 db 3b 6f f9 95 bb c1 06 dc 3c 1b 97 53 3d
       0.0066972463 -0.004576854 0.02685869 0.051657777
0001e0 35 16 fc 3c d7 2a 19 3d 97 0e 1f 3d a1 7f 06 3c
       0.030772308 0.03739437 0.038832273 0.00820914
0001f0 fe 68 b7 3c c1 c4 66 3c a8 45 2b 3d 67 31 b0 3c
       0.022388931 0.014084996 0.041814476 0.021507932
000200 3b f3 ea 3c 95 26 8c 3b 72 ef af bc fb 0d 8c 3b
       0.028680434 0.0042770603 -0.021476481 0.0042741275
000210 5d 48 6d 3c f4 5d a9 3c b0 4b e7 3c 05 95 97 3c
       0.014482585 0.020674683 0.028234333 0.018503675
000220 02 66 29 3d 56 a8 b1 3b b1 10 b6 3c 39 04 9b 3b
       0.041357048 0.0054216785 0.022224756 0.004730728
000230 3f da f8 3c 0b e0 e8 3c f0 60 f4 bc d9 a3 2f bb
       0.030377505 0.028427145 -0.02983138 -0.0026800542
000240 c6 d5 21 3a 04 a9 4b 3d a3 59 f5 3c 08 01 06 3d
       0.00061735173 0.049721733 0.029949969 0.032715827
000250 84 c6 0f 3d 64 04 62 3c 1d b8 98 3c 0e 5c 05 3d
       0.03510143 0.013794992 0.01864248 0.032558493
000260 3a 04 f1 3b 64 38 30 3d 34 fe 02 bb c7 82 3c 3b
       0.00735524 0.04302253 -0.0019987943 0.0028764473
000270 ad 03 6c bd 5e 31 f2 bc c6 00 ae 3c 5c 8d 21 3b
       -0.057620693 -0.029564556 0.021240603 0.0024650907
000280 a9 b0 e9 3c 10 f5 bc 3c ca ed 0e 3d da 16 0f bc
       0.028526621 0.023066074 0.034894742 -0.008733476
000290 87 4c 33 3c d4 dd ab 3b e4 d3 2d 3c 03 8c 21 bd
       0.0109435385 0.00524495 0.010609601 -0.039440166
0002a0 77 5c 11 bd ba 0e 8a 3b d7 21 cf bb fa a4 ec bc
       -0.035488572 0.0042131813 -0.0063211727 -0.02888726
0002b0 5a b4 21 3c 95 1c a0 3a 99 5a 0f 3d 86 e0 f8 3c
       0.009869659 0.0012215549 0.03499851 0.030380499
0002c0 df 1b 18 3d 1f 89 a9 3b d3 cc 5e bc fe f6 c5 bc
       0.037135955 0.005173817 -0.013598639 -0.024165627
0002d0 c0 1c 0a bd 52 d9 c5 3a 91 b1 15 bc 0b ab c5 3c
       -0.033718824 0.0015094674 -0.009136573 0.024129411
0002e0 90 16 db bc da 60 81 ba 0b 66 58 3d 9f ee 66 3c
       -0.026744157 -0.0009870783 0.05283169 0.014094978
0002f0 b6 64 20 3d 68 06 38 3d 0c 60 37 3c 27 99 99 bb
       0.039158545 0.044927984 0.011192333 -0.0046874466
000300 33 0d bf ba 24 6f e7 3c a5 9a 0b bc df 06 46 3d
       -0.0014576077 0.028251238 -0.008520757 0.048346397
000310 3d 5b 86 3c 88 b2 f7 3b 6f fc e1 3b f0 7e 65 3c
       0.016400928 0.0075591244 0.0068965475 0.014007315
000320 90 8b 26 3d 84 d3 8c 39 19 37 e7 bb 20 8b 16 3a
       0.04066044 0.00026860472 -0.0070561287 0.0005742777
000330 cf c0 98 3b 0f 2d 6a ba ba 7e 64 3c 79 cd 52 3d
       0.0046616565 -0.0008933106 0.01394623 0.051465485
000340 df e5 95 3c 78 f2 f4 bc 1e 64 32 bd c9 09 82 3b
       0.018298088 -0.029900774 -0.04355251 0.0039684516
000350 4b cb de 3b 67 3a d9 bc 44 0b 36 bd 7f 2f 68 bd
       0.0067991368 -0.026517106 -0.044444337 -0.05668592
000360 96 2d a5 bd 2e ec f5 bc 14 ec 2c bd 95 95 90 bb
       -0.080653355 -0.030019846 -0.04221733 -0.004412363
000370 1a 7a 1d 3d 4b 8d bc bc c1 22 15 bd 9c 80 eb bb
       0.038446523 -0.023016592 -0.036410097 -0.0071869623
000380 f3 2b 30 bc ba 49 03 bb 07 a7 e1 bc be 58 36 bd
       -0.010752666 -0.0020032958 -0.027545465 -0.044518225
000390 f9 e3 a3 bd b5 c0 8b bd a3 25 87 bd 5f 7b 30 bd
       -0.08002467 -0.06823865 -0.065989755 -0.043086406
0003a0 93 bc 21 bd 52 85 d8 bc 95 dc 37 bc 33 06 a0 bc
       -0.03948648 -0.02643076 -0.011222024 -0.019534206
0003b0 20 67 15 bd 23 b7 ae bc 33 4b 9c 3b 73 f1 86 bc
       -0.0364753 -0.02132756 0.0047697066 -0.016472554
0003c0 56 dd d4 bb f0 c6 8e bc e8 c9 95 bc ad 87 b4 bb
       -0.006496112 -0.017428845 -0.018284753 -0.005509338
0003d0 27 fe fa bc 12 23 38 bc e0 17 58 bd d8 22 61 bd
       -0.030638767 -0.01123883 -0.052757144 -0.05496487
0003e0 7b 69 f7 bc 56 3a 21 bd d8 7c 94 bc c8 fc ae bc
       -0.030201664 -0.039362274 -0.018125936 -0.02136077
0003f0 7a 67 83 3c 8d c3 02 bd fd 4a 10 bb 6f 11 c1 bc
       0.016040552 -0.031924773 -0.0022017353 -0.023567883

classifier.1.bias f4 [2]
000000 03 4b 1f 3d 88 0c 2a bd
       0.038889896 -0.041515857
